…
I1216 11:50:08.568238 18222 net.cpp:322] The NetState phase (0) differed from the phase (1) specified by a rule in layer mnist
I1216 11:50:08.568277 18222 net.cpp:322] The NetState phase (0) differed from the phase (1) specified by a rule in layer accuracy
I1216 11:50:08.568423 18222 net.cpp:58] Initializing net from parameters: 
name: "LeNet"
state {
  phase: TRAIN
  level: 0
  stage: ""
}
layer {
  name: "mnist"
  type: "Data"
  top: "data"
  top: "label"
  include {
    phase: TRAIN
  }
  transform_param {
    scale: 0.00390625
  }
  data_param {
    source: "./mnist_train_lmdb"
    batch_size: 64
    backend: LMDB
  }
}
layer {
  name: "conv1"
  type: "Convolution"
  bottom: "data"
  top: "conv1"
  param {
    lr_mult: 1
  }
  param {
    lr_mult: 2
  }
  convolution_param {
    num_output: 20
    kernel_size: 5
    stride: 1
    weight_filler {
      type: "xavier"
    }
    bias_filler {
      type: "constant"
    }
  }
}
layer {
  name: "pool1"
  type: "Pooling"
  bottom: "conv1"
  top: "pool1"
  pooling_param {
    pool: MAX
    kernel_size: 2
    stride: 2
  }
}
layer {
  name: "conv2"
  type: "Convolution"
  bottom: "pool1"
  top: "conv2"
  param {
    lr_mult: 1
  }
  param {
    lr_mult: 2
  }
  convolution_param {
    num_output: 50
    kernel_size: 5
    stride: 1
    weight_filler {
      type: "xavier"
    }
    bias_filler {
      type: "constant"
    }
  }
}
layer {
  name: "pool2"
  type: "Pooling"
  bottom: "conv2"
  top: "pool2"
  pooling_param {
    pool: MAX
    kernel_size: 2
    stride: 2
  }
}
layer {
  name: "ip1"
  type: "InnerProduct"
  bottom: "pool2"
  top: "ip1"
  param {
    lr_mult: 1
  }
  param {
    lr_mult: 2
  }
  inner_product_param {
    num_output: 500
    weight_filler {
      type: "xavier"
    }
    bias_filler {
      type: "constant"
    }
  }
}
layer {
  name: "relu1"
  type: "ReLU"
  bottom: "ip1"
  top: "ip1"
}
layer {
  name: "ip2"
  type: "InnerProduct"
  bottom: "ip1"
  top: "ip2"
  param {
    lr_mult: 1
  }
  param {
    lr_mult: 2
  }
  inner_product_param {
    num_output: 10
    weight_filler {
      type: "xavier"
    }
    bias_filler {
      type: "constant"
    }
  }
}
layer {
  name: "loss"
  type: "SoftmaxWithLoss"
  bottom: "ip2"
  bottom: "label"
  top: "loss"
}
I1216 11:50:08.568538 18222 layer_factory.hpp:77] Creating layer mnist
I1216 11:50:08.569468 18222 net.cpp:100] Creating Layer mnist
I1216 11:50:08.569494 18222 net.cpp:408] mnist -> data
I1216 11:50:08.569542 18222 net.cpp:408] mnist -> label
I1216 11:50:08.574992 18231 db_lmdb.cpp:35] Opened lmdb ./mnist_train_lmdb
I1216 11:50:08.588089 18222 data_layer.cpp:41] output data size: 64,1,28,28
I1216 11:50:08.589454 18222 net.cpp:150] Setting up mnist
I1216 11:50:08.589479 18222 net.cpp:157] Top shape: 64 1 28 28 (50176)
I1216 11:50:08.589485 18222 net.cpp:157] Top shape: 64 (64)
I1216 11:50:08.589488 18222 net.cpp:165] Memory required for data: 200960
I1216 11:50:08.589498 18222 layer_factory.hpp:77] Creating layer conv1
I1216 11:50:08.589521 18222 net.cpp:100] Creating Layer conv1
I1216 11:50:08.589527 18222 net.cpp:434] conv1 <- data
I1216 11:50:08.589543 18222 net.cpp:408] conv1 -> conv1
I1216 11:50:08.759910 18222 net.cpp:150] Setting up conv1
I1216 11:50:08.759937 18222 net.cpp:157] Top shape: 64 20 24 24 (737280)
I1216 11:50:08.759940 18222 net.cpp:165] Memory required for data: 3150080
I1216 11:50:08.759954 18222 layer_factory.hpp:77] Creating layer pool1
I1216 11:50:08.759966 18222 net.cpp:100] Creating Layer pool1
I1216 11:50:08.759970 18222 net.cpp:434] pool1 <- conv1
I1216 11:50:08.759996 18222 net.cpp:408] pool1 -> pool1
I1216 11:50:08.760043 18222 net.cpp:150] Setting up pool1
I1216 11:50:08.760048 18222 net.cpp:157] Top shape: 64 20 12 12 (184320)
I1216 11:50:08.760051 18222 net.cpp:165] Memory required for data: 3887360
I1216 11:50:08.760053 18222 layer_factory.hpp:77] Creating layer conv2
I1216 11:50:08.760063 18222 net.cpp:100] Creating Layer conv2
I1216 11:50:08.760066 18222 net.cpp:434] conv2 <- pool1
I1216 11:50:08.760069 18222 net.cpp:408] conv2 -> conv2
I1216 11:50:08.761173 18222 net.cpp:150] Setting up conv2
I1216 11:50:08.761185 18222 net.cpp:157] Top shape: 64 50 8 8 (204800)
I1216 11:50:08.761188 18222 net.cpp:165] Memory required for data: 4706560
I1216 11:50:08.761195 18222 layer_factory.hpp:77] Creating layer pool2
I1216 11:50:08.761201 18222 net.cpp:100] Creating Layer pool2
I1216 11:50:08.761204 18222 net.cpp:434] pool2 <- conv2
I1216 11:50:08.761209 18222 net.cpp:408] pool2 -> pool2
I1216 11:50:08.761240 18222 net.cpp:150] Setting up pool2
I1216 11:50:08.761245 18222 net.cpp:157] Top shape: 64 50 4 4 (51200)
I1216 11:50:08.761246 18222 net.cpp:165] Memory required for data: 4911360
I1216 11:50:08.761248 18222 layer_factory.hpp:77] Creating layer ip1
I1216 11:50:08.761255 18222 net.cpp:100] Creating Layer ip1
I1216 11:50:08.761257 18222 net.cpp:434] ip1 <- pool2
I1216 11:50:08.761260 18222 net.cpp:408] ip1 -> ip1
I1216 11:50:08.763952 18222 net.cpp:150] Setting up ip1
I1216 11:50:08.763962 18222 net.cpp:157] Top shape: 64 500 (32000)
I1216 11:50:08.763965 18222 net.cpp:165] Memory required for data: 5039360
I1216 11:50:08.763972 18222 layer_factory.hpp:77] Creating layer relu1
I1216 11:50:08.763977 18222 net.cpp:100] Creating Layer relu1
I1216 11:50:08.763979 18222 net.cpp:434] relu1 <- ip1
I1216 11:50:08.763983 18222 net.cpp:395] relu1 -> ip1 (in-place)
I1216 11:50:08.764125 18222 net.cpp:150] Setting up relu1
I1216 11:50:08.764134 18222 net.cpp:157] Top shape: 64 500 (32000)
I1216 11:50:08.764137 18222 net.cpp:165] Memory required for data: 5167360
I1216 11:50:08.764140 18222 layer_factory.hpp:77] Creating layer ip2
I1216 11:50:08.764145 18222 net.cpp:100] Creating Layer ip2
I1216 11:50:08.764147 18222 net.cpp:434] ip2 <- ip1
I1216 11:50:08.764152 18222 net.cpp:408] ip2 -> ip2
I1216 11:50:08.764617 18222 net.cpp:150] Setting up ip2
I1216 11:50:08.764632 18222 net.cpp:157] Top shape: 64 10 (640)
I1216 11:50:08.764636 18222 net.cpp:165] Memory required for data: 5169920
I1216 11:50:08.764641 18222 layer_factory.hpp:77] Creating layer loss
I1216 11:50:08.764650 18222 net.cpp:100] Creating Layer loss
I1216 11:50:08.764653 18222 net.cpp:434] loss <- ip2
I1216 11:50:08.764657 18222 net.cpp:434] loss <- label
I1216 11:50:08.764660 18222 net.cpp:408] loss -> loss
I1216 11:50:08.764674 18222 layer_factory.hpp:77] Creating layer loss
…
I1216 11:50:08.765941 18222 solver.cpp:181] Creating test net (#0) specified by net file: ./lenet_train_test.prototxt
I1216 11:50:08.765998 18222 net.cpp:322] The NetState phase (1) differed from the phase (0) specified by a rule in layer mnist
I1216 11:50:08.766183 18222 net.cpp:58] Initializing net from parameters: 
name: "LeNet"
state {
  phase: TEST
}
layer {
  name: "mnist"
  type: "Data"
  top: "data"
  top: "label"
  include {
    phase: TEST
  }
  transform_param {
    scale: 0.00390625
  }
  data_param {
    source: "./mnist_test_lmdb"
    batch_size: 100
    backend: LMDB
  }
}
layer {
  name: "conv1"
  type: "Convolution"
  bottom: "data"
  top: "conv1"
  param {
    lr_mult: 1
  }
  param {
    lr_mult: 2
  }
  convolution_param {
    num_output: 20
    kernel_size: 5
    stride: 1
    weight_filler {
      type: "xavier"
    }
    bias_filler {
      type: "constant"
    }
  }
}
layer {
  name: "pool1"
  type: "Pooling"
  bottom: "conv1"
  top: "pool1"
  pooling_param {
    pool: MAX
    kernel_size: 2
    stride: 2
  }
}
layer {
  name: "conv2"
  type: "Convolution"
  bottom: "pool1"
  top: "conv2"
  param {
    lr_mult: 1
  }
  param {
    lr_mult: 2
  }
  convolution_param {
    num_output: 50
    kernel_size: 5
    stride: 1
    weight_filler {
      type: "xavier"
    }
    bias_filler {
      type: "constant"
    }
  }
}
layer {
  name: "pool2"
  type: "Pooling"
  bottom: "conv2"
  top: "pool2"
  pooling_param {
    pool: MAX
    kernel_size: 2
    stride: 2
  }
}
layer {
  name: "ip1"
  type: "InnerProduct"
  bottom: "pool2"
  top: "ip1"
  param {
    lr_mult: 1
  }
  param {
    lr_mult: 2
  }
  inner_product_param {
    num_output: 500
    weight_filler {
      type: "xavier"
    }
    bias_filler {
      type: "constant"
    }
  }
}
layer {
  name: "relu1"
  type: "ReLU"
  bottom: "ip1"
  top: "ip1"
}
layer {
  name: "ip2"
  type: "InnerProduct"
  bottom: "ip1"
  top: "ip2"
  param {
    lr_mult: 1
  }
  param {
    lr_mult: 2
  }
  inner_product_param {
    num_output: 10
    weight_filler {
      type: "xavier"
    }
    bias_filler {
      type: "constant"
    }
  }
}
layer {
  name: "accuracy"
  type: "Accuracy"
  bottom: "ip2"
  bottom: "label"
  top: "accuracy"
  include {
    phase: TEST
  }
}
layer {
  name: "loss"
  type: "SoftmaxWithLoss"
  bottom: "ip2"
  bottom: "label"
  top: "loss"
}
I1216 11:50:08.766302 18222 layer_factory.hpp:77] Creating layer mnist
I1216 11:50:08.766484 18222 net.cpp:100] Creating Layer mnist
I1216 11:50:08.766497 18222 net.cpp:408] mnist -> data
I1216 11:50:08.766515 18222 net.cpp:408] mnist -> label
I1216 11:50:08.771993 18233 db_lmdb.cpp:35] Opened lmdb ./mnist_test_lmdb
I1216 11:50:08.773216 18222 data_layer.cpp:41] output data size: 100,1,28,28
I1216 11:50:08.775107 18222 net.cpp:150] Setting up mnist
I1216 11:50:08.775135 18222 net.cpp:157] Top shape: 100 1 28 28 (78400)
I1216 11:50:08.775146 18222 net.cpp:157] Top shape: 100 (100)
I1216 11:50:08.775152 18222 net.cpp:165] Memory required for data: 314000
I1216 11:50:08.775161 18222 layer_factory.hpp:77] Creating layer label_mnist_1_split
I1216 11:50:08.775177 18222 net.cpp:100] Creating Layer label_mnist_1_split
I1216 11:50:08.775188 18222 net.cpp:434] label_mnist_1_split <- label
I1216 11:50:08.775205 18222 net.cpp:408] label_mnist_1_split -> label_mnist_1_split_0
I1216 11:50:08.775229 18222 net.cpp:408] label_mnist_1_split -> label_mnist_1_split_1
I1216 11:50:08.775367 18222 net.cpp:150] Setting up label_mnist_1_split
I1216 11:50:08.775385 18222 net.cpp:157] Top shape: 100 (100)
I1216 11:50:08.775398 18222 net.cpp:157] Top shape: 100 (100)
I1216 11:50:08.775413 18222 net.cpp:165] Memory required for data: 314800
I1216 11:50:08.775424 18222 layer_factory.hpp:77] Creating layer conv1
I1216 11:50:08.775457 18222 net.cpp:100] Creating Layer conv1
I1216 11:50:08.775472 18222 net.cpp:434] conv1 <- data
I1216 11:50:08.775491 18222 net.cpp:408] conv1 -> conv1
I1216 11:50:08.777916 18222 net.cpp:150] Setting up conv1
I1216 11:50:08.777946 18222 net.cpp:157] Top shape: 100 20 24 24 (1152000)
I1216 11:50:08.777953 18222 net.cpp:165] Memory required for data: 4922800
I1216 11:50:08.777977 18222 layer_factory.hpp:77] Creating layer pool1
I1216 11:50:08.777998 18222 net.cpp:100] Creating Layer pool1
I1216 11:50:08.778045 18222 net.cpp:434] pool1 <- conv1
I1216 11:50:08.778067 18222 net.cpp:408] pool1 -> pool1
I1216 11:50:08.778185 18222 net.cpp:150] Setting up pool1
I1216 11:50:08.778203 18222 net.cpp:157] Top shape: 100 20 12 12 (288000)
I1216 11:50:08.778213 18222 net.cpp:165] Memory required for data: 6074800
I1216 11:50:08.778223 18222 layer_factory.hpp:77] Creating layer conv2
I1216 11:50:08.778254 18222 net.cpp:100] Creating Layer conv2
I1216 11:50:08.778268 18222 net.cpp:434] conv2 <- pool1
I1216 11:50:08.778291 18222 net.cpp:408] conv2 -> conv2
I1216 11:50:08.780836 18222 net.cpp:150] Setting up conv2
I1216 11:50:08.780864 18222 net.cpp:157] Top shape: 100 50 8 8 (320000)
I1216 11:50:08.780871 18222 net.cpp:165] Memory required for data: 7354800
I1216 11:50:08.780890 18222 layer_factory.hpp:77] Creating layer pool2
I1216 11:50:08.780910 18222 net.cpp:100] Creating Layer pool2
I1216 11:50:08.780920 18222 net.cpp:434] pool2 <- conv2
I1216 11:50:08.780936 18222 net.cpp:408] pool2 -> pool2
I1216 11:50:08.781044 18222 net.cpp:150] Setting up pool2
I1216 11:50:08.781061 18222 net.cpp:157] Top shape: 100 50 4 4 (80000)
I1216 11:50:08.781070 18222 net.cpp:165] Memory required for data: 7674800
I1216 11:50:08.781080 18222 layer_factory.hpp:77] Creating layer ip1
I1216 11:50:08.781100 18222 net.cpp:100] Creating Layer ip1
I1216 11:50:08.781113 18222 net.cpp:434] ip1 <- pool2
I1216 11:50:08.781136 18222 net.cpp:408] ip1 -> ip1
I1216 11:50:08.789355 18222 net.cpp:150] Setting up ip1
I1216 11:50:08.789389 18222 net.cpp:157] Top shape: 100 500 (50000)
I1216 11:50:08.789400 18222 net.cpp:165] Memory required for data: 7874800
I1216 11:50:08.789425 18222 layer_factory.hpp:77] Creating layer relu1
I1216 11:50:08.789443 18222 net.cpp:100] Creating Layer relu1
I1216 11:50:08.789453 18222 net.cpp:434] relu1 <- ip1
I1216 11:50:08.789468 18222 net.cpp:395] relu1 -> ip1 (in-place)
I1216 11:50:08.790335 18222 net.cpp:150] Setting up relu1
I1216 11:50:08.790369 18222 net.cpp:157] Top shape: 100 500 (50000)
I1216 11:50:08.790380 18222 net.cpp:165] Memory required for data: 8074800
I1216 11:50:08.790390 18222 layer_factory.hpp:77] Creating layer ip2
I1216 11:50:08.790416 18222 net.cpp:100] Creating Layer ip2
I1216 11:50:08.790432 18222 net.cpp:434] ip2 <- ip1
I1216 11:50:08.790451 18222 net.cpp:408] ip2 -> ip2
I1216 11:50:08.790875 18222 net.cpp:150] Setting up ip2
I1216 11:50:08.790897 18222 net.cpp:157] Top shape: 100 10 (1000)
I1216 11:50:08.790904 18222 net.cpp:165] Memory required for data: 8078800
I1216 11:50:08.790916 18222 layer_factory.hpp:77] Creating layer ip2_ip2_0_split
I1216 11:50:08.790927 18222 net.cpp:100] Creating Layer ip2_ip2_0_split
I1216 11:50:08.790932 18222 net.cpp:434] ip2_ip2_0_split <- ip2
I1216 11:50:08.790946 18222 net.cpp:408] ip2_ip2_0_split -> ip2_ip2_0_split_0
I1216 11:50:08.790958 18222 net.cpp:408] ip2_ip2_0_split -> ip2_ip2_0_split_1
I1216 11:50:08.791026 18222 net.cpp:150] Setting up ip2_ip2_0_split
I1216 11:50:08.791039 18222 net.cpp:157] Top shape: 100 10 (1000)
I1216 11:50:08.791046 18222 net.cpp:157] Top shape: 100 10 (1000)
I1216 11:50:08.791051 18222 net.cpp:165] Memory required for data: 8086800
I1216 11:50:08.791057 18222 layer_factory.hpp:77] Creating layer accuracy
I1216 11:50:08.791069 18222 net.cpp:100] Creating Layer accuracy
I1216 11:50:08.791074 18222 net.cpp:434] accuracy <- ip2_ip2_0_split_0
I1216 11:50:08.791082 18222 net.cpp:434] accuracy <- label_mnist_1_split_0
I1216 11:50:08.791092 18222 net.cpp:408] accuracy -> accuracy
…
